session-2/Models/ModelWith97.pth (torch, 921167 bytes, 12 tensors)

conv1.conv.weight f4 [6, 1, 5, 5]
0	0x3dfa94c8	0.12235409
1	0x3e7524f3	0.23939876
2	0x3e80bf90	0.2514615
3	0x3e75df5f	0.2401099
4	0xbc84bf1f	-0.016204415
5	0x3d038f8d	0.032119323
6	0xbe104ed5	-0.14092572
7	0xbe2074d7	-0.15669571
8	0xbe8a5ed7	-0.27025482
9	0xbe283395	-0.16425927
10	0xbe2db94c	-0.16965216
11	0xbe227d11	-0.15868022
12	0xbd3ff523	-0.04686464
13	0xbda5c459	-0.08094091
14	0x3db29b99	0.08721084
15	0xbe2c9294	-0.1685279
16	0x3ca2a23a	0.019852746
17	0x3e2d61d8	0.16931856
18	0x3dcf6dbe	0.101283535
19	0x3e1d2e44	0.1534968
20	0x3e8b55aa	0.27213794
21	0x3e67497a	0.22586623
22	0x3dc9ff00	0.098630905
23	0xbca04e72	-0.019568656
24	0xbd505fdf	-0.05087268
25	0x3e0a803e	0.13525483
26	0x3c20d53b	0.009816463
27	0x3e2bcfe1	0.16778518
28	0xbd98de5b	-0.07464286
29	0x3dec7e71	0.11547554
30	0x3e680aaf	0.22660325
31	0xbd9cf210	-0.07663357
32	0xbdd49759	-0.1038043
33	0x3e4a1ff9	0.19738759
34	0x3eace8dc	0.33771408
35	0x3ba662a8	0.0050776787
36	0xbd239595	-0.039937574
37	0xbe04bc59	-0.12962474
38	0x3eaf25c1	0.3420849
39	0xbe2ea1a0	-0.17053843
40	0xbd80e2e0	-0.06293273
41	0x3d6aea3c	0.05735229
42	0x3dcdef27	0.1005538
43	0xbd6e910c	-0.058243796
44	0xbc46f014	-0.0121422
45	0xbe78f0c5	-0.24310596
46	0xbe2bbe25	-0.16771753
47	0xbc1cac55	-0.0095625715
48	0x3dc6b474	0.097023875
49	0xbddcdb6f	-0.10784041
50	0xbd5712fa	-0.05250833
51	0xbe2d10f7	-0.16901003
52	0xbe31aec0	-0.17351818
53	0x3dd16ccb	0.10225829
54	0x3b9347ff	0.0044946666
55	0xbe021c32	-0.12706068
56	0x3cb1f029	0.021720963
57	0xbdb5f068	-0.088837445
58	0xbe668b7e	-0.2251415
59	0x3e53c111	0.20679118
60	0xbdbbdb6b	-0.0917271
61	0x3d42b828	0.047538906
62	0xbda67583	-0.08127882
63	0xbd919a6e	-0.07109533
64	0x3d8461cc	0.06463966
65	0x3e8846e1	0.26616576
66	0xbe1a2f06	-0.15057
67	0x3d858d0d	0.06521044
68	0xbd1286ff	-0.035773274
69	0xbddee3f6	-0.10883324
70	0x3e537dd2	0.20653465
71	0x3e53bd1d	0.2067761
72	0x3dd580e1	0.10424972
73	0x3e8741aa	0.26417285
74	0x3bcc357b	0.0062319613
75	0x3e6414eb	0.22273605
76	0x3e5f071d	0.21780057
77	0x3d4130ce	0.047165684
78	0xbe0c5338	-0.1370362
79	0x3e3a3982	0.18186
80	0xbdb3f73c	-0.087873906
81	0x3e2b17c5	0.16708286
82	0x3e1d18be	0.1534147
83	0xbdb4908e	-0.08816634
84	0xbe673d90	-0.22582078
85	0xbe0439a4	-0.12912613
86	0x3b06f0d3	0.002059032
87	0x3dbd22f4	0.092351824
88	0xbdbed053	-0.093170784
89	0x3e206f54	0.15667468
90	0x3e3286a6	0.17434177
91	0x3e96210e	0.29322094
92	0x3ea48c7c	0.3213843
93	0x3e81e76e	0.2537188
94	0x3e1f019f	0.15527962
95	0xbe8a4c70	-0.27011442
96	0x3c527ecf	0.012847616
97	0x3da204f9	0.07911105
98	0x3ba677e7	0.0050802114
99	0xbbf8b421	-0.0075898324
100	0xbe541da3	-0.2071443
101	0xbc954628	-0.01822193
102	0xbe22c50b	-0.15895478
103	0x3ddacde1	0.106837995
104	0xbdec1f64	-0.11529425
105	0x3ddb6acd	0.1071373
106	0x3bbcf166	0.0057660816
107	0xbe07bea9	-0.13256325
108	0xbe171441	-0.1475382
109	0xbe62bb1a	-0.22141686
110	0xbe2925a0	-0.16518259
111	0xbe80dca9	-0.2516835
112	0xbe196703	-0.14980702
113	0xbd36b711	-0.04460818
114	0xbcc6e1a0	-0.024277508
115	0x3e6d525e	0.23175952
116	0x3e39032a	0.18067613
117	0x3e89492a	0.26813632
118	0x3e9bc863	0.3042632
119	0x3e8b6486	0.2722513
120	0xbc5c20f9	-0.013435596
121	0x3e396e33	0.18108444
122	0x3e87e25d	0.2653989
123	0x3d7d7983	0.06188346
124	0x3d517a8b	0.051142257
125	0xbe3fd39b	-0.18733065
126	0xbe1c8df0	-0.1528852
127	0xbd7bd15a	-0.06147895
128	0x3e0acbde	0.13554332
129	0x3eaa8fdb	0.33312878
130	0x3c47b05f	0.012188046
131	0xbe6b4ff2	-0.22979715
132	0xbdbb3b7c	-0.09142205
133	0xbe234401	-0.1594391
134	0x3ef26307	0.47341177
135	0x3e3c6e8d	0.18401547
136	0xbe2e7de0	-0.17040205
137	0x3d1ccded	0.038282324
138	0xbe610e48	-0.21978104
139	0x3e95191b	0.29120716
140	0x3d705f71	0.05868477
141	0xbda498ba	-0.08036943
142	0x3d8bf287	0.06833368
143	0xbdabcbf4	-0.0838851
144	0x3d9e2151	0.07721198
145	0x3da6966e	0.08134161
146	0xbe048227	-0.12940274
147	0x3e28dc48	0.1649028
148	0xbe0760c5	-0.13220508
149	0x3daa13e4	0.08304575

conv1.conv.bias f4 [6]
0	0x3e53733c	0.20649427
1	0x3e489959	0.19589747
2	0x3d3e2547	0.04642227
3	0x3dd26110	0.102724195
4	0x3de751a2	0.11294867
5	0x3c33437d	0.010941383

conv2.conv.weight f4 [16, 6, 5, 5]
0	0xbda27534	-0.07932511
1	0x3d722946	0.059121393
2	0xbd025136	-0.03181573
3	0x3c72b49f	0.014813571
4	0x3d1b91d4	0.03798087
5	0xbe31cf25	-0.17364176
6	0xbd520337	-0.051272597
7	0xbc8760e2	-0.01652569
8	0x3db1f170	0.08688629
9	0xbbeddb8f	-0.0072588394
10	0xbc851441	-0.01624501
11	0x3d255883	0.040367614
12	0x3dec581a	0.115402415
13	0x3cf8b42e	0.030359354
14	0x3deceb1c	0.11568281
15	0xbdc2a112	-0.09503378
16	0xbcbc2e82	-0.022971395
17	0x3cf5c5db	0.030001571
18	0x3dc22264	0.09479216
19	0xbccba4bf	-0.02485883
20	0x3d0a7b95	0.033809263
21	0x3b694fda	0.0035600574
22	0x3c1a3bc1	0.0094136605
23	0x3db18ee7	0.086698346
24	0x3d9fa003	0.07794192
25	0xbd9aa22e	-0.075504646
26	0x3c6e4ef9	0.014545196
27	0x3d36529c	0.044512376
28	0x3a0cd1d8	0.00053718453
29	0xbd0ecc30	-0.034862697
30	0xbdc89571	-0.09794129
31	0x3d41d456	0.04732164
32	0xbb812aa9	-0.003941853
33	0x3dfca87d	0.12336824
34	0x3d261ecb	0.04055671
35	0xbd318fd9	-0.043350074
36	0x3de8de83	0.11370566
37	0x3d1295f0	0.035787523
38	0x3d5d85cc	0.054082677
39	0x3cec7b5f	0.028867422
40	0x3d938978	0.072039545
41	0x3d876647	0.06611305
42	0x3ddc3a64	0.10753325
43	0x3e200ff1	0.15631081
44	0x3d46eaaa	0.048563637
45	0xbd9f9451	-0.07791961
46	0x3dcd7001	0.10031129
47	0xbd05b794	-0.032645777
48	0x3dfb5ae5	0.12273196
49	0xbc7e8234	-0.0155339725
50	0x3cf343e7	0.029695464
51	0xbcb42236	-0.02198897
52	0x3cdfae7f	0.027304886
53	0x3bb84e4c	0.005624568
54	0xbd95853c	-0.07300803
55	0xbd70a280	-0.058748722
56	0x3d91003c	0.07080123
57	0xbd183a15	-0.037164766
58	0x3cfd9a59	0.030957388
59	0xbd8c04e1	-0.06836868
60	0xbcb69072	-0.022285674
61	0xbd625aba	-0.055262305
62	0xbda2fa88	-0.07957941
63	0xbcfd92ac	-0.030953728
64	0xbdcd684b	-0.10029658
65	0xbd7a26f4	-0.061072305
66	0x3d3eff84	0.046630397
67	0xbd173e49	-0.036924634
68	0xbbabbd94	-0.0052411053
69	0xbbba9400	-0.0056939125
70	0x3c062576	0.008187642
71	0x3d8619e3	0.06547906
72	0xbc20b1f0	-0.009808049
73	0xbd8876f0	-0.066633105
74	0x3d7c36d7	0.061575737
75	0xbdc151e7	-0.0943945
76	0x3db90e75	0.090359606
77	0x3e0450a4	0.12921387
78	0x3c694314	0.014237184
79	0x3ca7a7d5	0.02046577
80	0xbd702257	-0.0586265
81	0xbd18d4a5	-0.03731217
82	0x3cf9634a	0.030442853
83	0x3d41df99	0.04733238
84	0xbc86dfaf	-0.016464083
85	0xbdba8b90	-0.09108651
86	0xbc82e5be	-0.01597869
87	0x3c8cb09c	0.017174058
88	0x3d99eaca	0.075154856
89	0x3cfa2cd3	0.030538952
90	0xbd62cfad	-0.055373836
91	0x3c9def9d	0.019279296
92	0x3d7f06a0	0.062262177
93	0x3d66dd87	0.05636361
94	0xbb1a3764	-0.002353155
95	0xbb8b0a23	-0.0042431518
96	0xbcfd5969	-0.030926423
97	0x3dcdf1ff	0.10055923
98	0x3da7e748	0.0819841
99	0x3b1df9fa	0.0024105296
100	0xbe1337db	-0.14376776
101	0x3a582a4b	0.0008246048
102	0x3c7a16f3	0.015264261
103	0x3e04cbcf	0.12968372
104	0x3e17b206	0.14814004
105	0xbd565aed	-0.052332807
106	0x3d9758ac	0.0738996
107	0x3dc2875c	0.09498474
108	0xbd1fd2b0	-0.039019287
109	0xbdb81ef5	-0.089902796
110	0x3da32115	0.07965294
111	0x3cbd607e	0.0231173
112	0x3d0134bd	0.031544436
113	0xbd976eb5	-0.073941626
114	0x3d3e50c0	0.046463728
115	0xbdc2ddcb	-0.0951496
116	0xbd2dfc12	-0.04247672
117	0xbce2116b	-0.027596196
118	0xbd54815c	-0.05188118
119	0xbb3bcc06	-0.0028655543
120	0xbd1e2472	-0.038608976
121	0xbdadd5e3	-0.08488061
122	0xbd3b8337	-0.045779433
123	0xbd742314	-0.059603766
124	0xbd2342d3	-0.03985865
125	0x3e16f09a	0.1474022
126	0x3d5d2572	0.05399079
127	0x3dece76e	0.11567579
128	0x3e0bb727	0.13644086
129	0xbc9b7361	-0.018975915
130	0x3d01d5f3	0.03169818
131	0x3e048f7f	0.12945364
132	0x3cbcdf80	0.023055792
133	0x3c19e8d8	0.009393893
134	0x3d246e4f	0.04014426
135	0xbd126d3d	-0.03574871
136	0x3dd32753	0.10310235
137	0x3dddc766	0.10829048
138	0x3e1729bf	0.14762019
139	0x3cce17bd	0.025157804
140	0xbd947bf8	-0.07250208
141	0x3db95d9f	0.0905106
142	0xbd20034d	-0.039065648
143	0xbd0a29a6	-0.033731125
144	0xbd74ae5f	-0.059736606
145	0x3c7f225c	0.015572157
146	0x3ca3e8ed	0.020008529
147	0x3a347a3b	0.0006884669
148	0x3dc7e5f8	0.0976066
149	0xbc965795	-0.01835231
150	0x3cf8941b	0.03034406
151	0x3da67490	0.08127701
152	0x3d8a6ea0	0.06759381
153	0xbcd07402	-0.025445942
154	0xbce90142	-0.028442983
155	0x3cf69ff6	0.030105572
156	0xbcb97a39	-0.022641288
157	0x3d471f52	0.048613854
158	0xbccabc0b	-0.024747869
159	0xbd0ae4ac	-0.033909485
160	0x3d5e7199	0.054307554
161	0x3d8e3f62	0.06945683
162	0x3d11b8a7	0.03557649
163	0x3d9d8699	0.07691688
164	0x3d6f2bb2	0.05839128
165	0xbd812592	-0.06305994
166	0x3d8eb1b9	0.06967492
167	0x3ddc04c3	0.10743096
168	0x3d7d4353	0.061831784
169	0x3cbd2831	0.023090454
170	0x3ca8fffb	0.020629873
171	0x3de72325	0.11286
172	0x3d8ab931	0.06773604
173	0x3d7a9986	0.061181568
174	0xbd09e27f	-0.03366327
175	0x3d1aa8f9	0.0377588
176	0x3dd0f413	0.102028035
177	0x3d50d186	0.050981067
178	0x3d26f868	0.040764242
179	0xbda278d7	-0.079332046
180	0xbd5d72af	-0.05406445
181	0x3c442dfd	0.011973855
182	0xbd1718bc	-0.036888823
183	0x3dae0291	0.08496583
184	0xbd3fe763	-0.046851527
185	0x3d6574ca	0.05601958
186	0x3da56bb5	0.08077184
187	0xbcd5369e	-0.02602702
188	0xbd32547e	-0.04353761
189	0xbd6fb480	-0.058521748
190	0x3d61e6c9	0.055151735
191	0x3dfa62d3	0.122258805
192	0x3c9352ac	0.017983757
193	0x3dd4f355	0.103979744
194	0x3d98dcd8	0.074639976
195	0x3d8f429a	0.06995125
196	0xbbbd8771	-0.005783968
197	0x3ddeb794	0.108748585
198	0x3dc9d142	0.09854366
199	0xbb8241f1	-0.003975146
200	0xbc3017b2	-0.010747837
201	0xbdd914f0	-0.10599697
202	0xbdd0562e	-0.101726875
203	0x3d667b87	0.05627015
204	0x3c539213	0.012913245
205	0xbd8c52e7	-0.0685175
206	0xbd024f8c	-0.031814143
207	0xbd14d4f9	-0.03633592
208	0xbd829108	-0.06375319
209	0xbc53ec6d	-0.012934786
210	0xbc931e71	-0.017958852
211	0x3ce65705	0.028117666
212	0x3d49baac	0.04925029
213	0x3b3a05c6	0.002838479
214	0x3d0b7007	0.034042384
215	0xbd2a43cd	-0.041568566
216	0x3d9ad955	0.07560984
217	0x3cc71a24	0.024304457
218	0x3c607994	0.0137008615
219	0x3d3ed313	0.046588015
220	0xbcdfd845	-0.027324805
221	0xbc17028b	-0.009216915
222	0xbd021abc	-0.031763777
223	0xbc76ae4d	-0.015056205
224	0x3d19de5f	0.037565585
225	0xbd0de995	-0.03464659
226	0x3cccfc57	0.025022669
227	0x3d7095f3	0.058736753
228	0xbcf76803	-0.030200964
229	0xbd685476	-0.056721173
230	0xbcadfa56	-0.021237534
231	0x3dbc2242	0.09186222
232	0xbd575f7a	-0.052581288
233	0xbd4a9650	-0.049459755
234	0xbd6dfbff	-0.05810165
235	0x3a296f9b	0.0006463469
236	0x3d9ed305	0.077550925
237	0x3d1b3811	0.037895266
238	0xbd51e533	-0.051243972
239	0xbe0eabe0	-0.13932753
240	0xbd31ecaf	-0.04343861
241	0x3d2282e4	0.03967561
242	0x3c2706cc	0.010194492
243	0xbc6d6274	-0.014488805
244	0xbd598c52	-0.053112336
245	0xbd6c12ae	-0.057635
246	0x3b83efde	0.004026397
247	0x3ce6b5a9	0.028162794
248	0xbd59f63a	-0.053213336
249	0xbe16b2c0	-0.14716625
250	0xbd3e65f9	-0.046483967
251	0x3dc4ca27	0.0960887
252	0x3d003d16	0.031308256
253	0xbd87ea0f	-0.0663644
254	0xbd76504f	-0.060135182
255	0xbdb71874	-0.08940211

conv2.conv.bias f4 [16]
0	0xbb858077	-0.004074152
1	0x3a501639	0.0007937882
2	0xbb8a6007	-0.004222873
3	0x3c971d11	0.018446477
4	0xbaa6d116	-0.0012727107
5	0xbcb1dfbc	-0.02171313
6	0xbcce28a9	-0.025165873
7	0x3d8ff595	0.07029263
8	0xbbec6e50	-0.0072152987
9	0xbd08be81	-0.033384804
10	0xbcaf818f	-0.021424083
11	0xbdbfc56e	-0.093638286
12	0x3aa7eae7	0.0012811095
13	0x3d304a6d	0.043039728
14	0xbbac093a	-0.0052501233
15	0xbd4e69c6	-0.050393842

conv3.conv.weight f4 [32, 16, 5, 5]
0	0xbbb82d53	-0.0056206374
1	0x3c6edf6c	0.014579635
2	0x3c552954	0.013010342
3	0xbd8d2b7a	-0.06893058
4	0xbc46820c	-0.0121159665
5	0xbd51cc58	-0.051220268
6	0xbcf2a75b	-0.029620817
7	0xbc86540a	-0.016397495
8	0xbd234ba8	-0.039867073
9	0x3c48505a	0.012226189
10	0x3c81400a	0.015777607
11	0xbcc56487	-0.024095787
12	0xbaaf371f	-0.0013367868
13	0xbc8b4888	-0.017002359
14	0xbca57bb4	-0.020200588
15	0xbccc8014	-0.024963416
16	0xbc7cfcd3	-0.015441137
17	0xbcaf9a56	-0.021435898
18	0xbda52cad	-0.08065162
19	0xbd0baa0d	-0.03409772
20	0x3b61d710	0.0034460463
21	0x3ccb02b8	0.02478157
22	0xbd16a571	-0.03677887
23	0xbd10b6f4	-0.035330728
24	0xbd316f6b	-0.043319147
25	0xbd22b88e	-0.039726786
26	0x3d0926a7	0.033484127
27	0x3d20c7e5	0.039253134
28	0xbca80f0f	-0.020514993
29	0xbbd2b208	-0.0064299144
30	0xbc5e1e7e	-0.013557075
31	0xbbb5a73d	-0.005543618
32	0x3d4466f8	0.04794976
33	0x3d1f71ee	0.03892701
34	0xbb5da42b	-0.0033819776
35	0xbd78bb77	-0.060725655
36	0xbd87e755	-0.0663592
37	0xbceeb978	-0.029141173
38	0x3c67a63c	0.014138754
39	0xbd58b4b5	-0.05290671
40	0xbabbe634	-0.0014335574
41	0xbcc6b02f	-0.024253933
42	0xbaab362c	-0.0013062409
43	0x3cea5dc1	0.028609158
44	0xbd9fa80c	-0.07795724
45	0xbcd61c93	-0.026136672
46	0x3c24ea5f	0.010065644
47	0xbd687c49	-0.056759153
48	0xbd012d87	-0.03153756
49	0xbcff05f2	-0.031130765
50	0xbd16976b	-0.036765497
51	0xbd86f76b	-0.0659016
52	0xbd460eaa	-0.04835383
53	0x3cb1d19e	0.021706399
54	0xba75705c	-0.0009362751
55	0xbd662fdc	-0.056197986
56	0xbc121824	-0.008916888
57	0xbcd70533	-0.026247596
58	0x3d2cc8fb	0.042183857
59	0xbd13daaa	-0.036097206
60	0xbcfd69ab	-0.030934175
61	0x3c9a3399	0.018823432
62	0x3cc6aaec	0.024251424
63	0xbc82762a	-0.015925486
64	0xbd98b1a7	-0.074557595
65	0xbd85185f	-0.06498789
66	0xbca77c00	-0.02044487
67	0x3d0145d3	0.03156073
68	0xbd0e4653	-0.034735035
69	0x3d141b19	0.036158655
70	0xbc2d3900	-0.010572672
71	0xba8e6ba6	-0.0010865822
72	0xbc1d5398	-0.00960245
73	0xbd5caf19	-0.053877924
74	0xbcbbb426	-0.02291305
75	0xbd4f4ed4	-0.050612286
76	0x3d15ee87	0.03660443
77	0x3ca32460	0.019914806
78	0xbc8a9269	-0.016915517
79	0xbccd76ee	-0.025081124
80	0xbc71814e	-0.014740301
81	0xbca3262e	-0.019915666
82	0x3cebb26a	0.028771598
83	0xbd3e8287	-0.0465112
84	0xbc652746	-0.013986414
85	0xbc070bc8	-0.008242555
86	0xbd697484	-0.056995884
87	0x3cf0905f	0.029365717
88	0xbd7c6b19	-0.061625574
89	0x3cc4dacf	0.024030117
90	0xbbb3294a	-0.0054675685
91	0xbd314891	-0.043282095
92	0x3d0aba7c	0.03386925
93	0xbd415918	-0.047204107
94	0xbc85468d	-0.016268993
95	0xbd47744f	-0.048694905
96	0x3c9a732d	0.018853748
97	0x3bce3b25	0.0062936717
98	0xbd1e3f66	-0.03863468
99	0x3a4f5499	0.00079090294
100	0xbd1a8ba3	-0.037730824
101	0x3a2da98d	0.00066246913
102	0x3bfd67c0	0.007733315
103	0xbd4c9ed6	-0.049956165
104	0xbd21624c	-0.039400384
105	0xbcc6d4ff	-0.024271486
106	0x3d01b4a7	0.031666424
107	0x3ca201db	0.019776275
108	0xbd6bf10e	-0.057602935
109	0xbccb4a00	-0.02481556
110	0x3c7a89a6	0.015291607
111	0x3cea9daa	0.028639633
112	0x3b0d9aff	0.0021607277
113	0xbd34f099	-0.044174764
114	0xbd1a2bde	-0.03763949
115	0xbc8045a9	-0.015658217
116	0x3d0fd330	0.035113513
117	0xbcfdbd7c	-0.030974142
118	0xbca0167f	-0.019541977
119	0xbd816f1b	-0.0632002
120	0xbb1d6e16	-0.0024021915
121	0xbca07a4c	-0.019589566
122	0x3cfd5726	0.030925345
123	0x3c2fb1cd	0.010723543
124	0xbcbb0a75	-0.022832135
125	0x3ca612cd	0.020272637
126	0x3d4b80ba	0.04968331
127	0xbcd1551a	-0.025553275
128	0x3d2477ca	0.040153302
129	0xbd0c0fd4	-0.034194782
130	0x3c5e74ef	0.013577684
131	0x3bf159a5	0.007365423
132	0xbd6249d7	-0.0552462
133	0xbc1a5c54	-0.009421427
134	0xbc8747de	-0.016513761
135	0x3d490066	0.049072646
136	0x3d7a9c56	0.06118425
137	0x3d08ef35	0.03343125
138	0xbd7d2aa1	-0.061808232
139	0xbb0dc359	-0.002163133
140	0x3d12a683	0.03580333
141	0x3d26c72d	0.040717293
142	0xbc533842	-0.012891831
143	0x3c712eb4	0.014720608
144	0xbc26c299	-0.010178232
145	0x3d0fd103	0.03511144
146	0xbc52ca00	-0.012865543
147	0xbd5a3372	-0.05327172
148	0x3c9fa71e	0.019488867
149	0xbd5a58ee	-0.053307466
150	0x3cf685a5	0.030093024
151	0xbd54f2e1	-0.05198944
152	0xbd4b340e	-0.04961019
153	0xbd52cc39	-0.051464293
154	0xbd7d7e7a	-0.061888196
155	0xbd75a7bf	-0.05997443
156	0xbd2fd199	-0.042924497
157	0xbcff4997	-0.03116302
158	0x3bc42419	0.0059857485
159	0xbbd9c8d9	-0.0066462574
160	0xbd87a44f	-0.06623136
161	0x3c736acd	0.014857006
162	0xbcdc735d	-0.026910478
163	0x3ce601e5	0.028077075
164	0xbd53dbbe	-0.051723234
165	0x3ce6f8f6	0.028194886
166	0x3aabedf5	0.0013117181
167	0xbbfb4c51	-0.0076690097
168	0xbd198c22	-0.037487157
169	0xbb81cb2e	-0.0039609885
170	0xbc35fd09	-0.011107692
171	0xbd0ae962	-0.033913977
172	0x3aa9e434	0.0012961687
173	0xbcf97142	-0.030449513
174	0x3bca93ff	0.0061821933
175	0x3c894dc7	0.01676072
176	0x39a63cb7	0.00031707223
177	0xbd88d13e	-0.06680535
178	0xbadc1f6e	-0.0016794035
179	0xbccc2412	-0.024919543
180	0x3d11ff57	0.0356439
181	0x3b4d9a7c	0.0031372597
182	0x3cc80ce2	0.024420206
183	0x3bc5e23e	0.006038933
184	0x3c2ebf9e	0.010665802
185	0xbcd545a1	-0.026034178
186	0xbd138123	-0.036011826
187	0x3d16180b	0.036644023
188	0x3c95f657	0.01830594
189	0xbccfd721	-0.025371136
190	0x3ac3240a	0.001488806
191	0x3ca7c97d	0.02048182
192	0xbcb52902	-0.02211428
193	0x3c9094f7	0.017649157
194	0xbd4271ca	-0.0474718
195	0xbcf976a4	-0.03045208
196	0x3cf8f822	0.030391756
197	0xbac42d0a	-0.0014967036
198	0xbd7362c9	-0.05942038
199	0x3aa3f1e8	0.0012508007
200	0xbc8a95fe	-0.016917225
201	0xbcfd7cbc	-0.030943267
202	0xbd61b866	-0.055107497
203	0x3b5f9326	0.0034114807
204	0xbd779c0b	-0.06045155
205	0x3c390c4d	0.011294437
206	0xbbb07bc8	-0.0053858496
207	0x3cdb333f	0.026757834
208	0xbd68d626	-0.056844853
209	0xbc026b28	-0.007960118
210	0x3d16c279	0.036806557
211	0x3c9ebb41	0.019376399
212	0xbc82b3d6	-0.015954893
213	0x3ca5f72e	0.020259466
214	0x38e39cc7	0.000108534055
215	0x3c2a27db	0.010385479
216	0xbc8bdedc	-0.017074041
217	0x3cdfb1b4	0.027306415
218	0x3c5fbad7	0.013655386
219	0xbc98b94b	-0.018643042
220	0xbd41af07	-0.04728606
221	0xbcfc9d9f	-0.030836878
222	0x3c1a88aa	0.009431997
223	0xbd1157c4	-0.03548409
224	0xbd6945a0	-0.056951165
225	0xbcd84c93	-0.026403701
226	0xbc3bdeac	-0.011466663
227	0x3c84bb1d	0.016202504
228	0x3b1306fa	0.0022434578
229	0x3cdbd994	0.026837148
230	0xbd864aa0	-0.06557202
231	0x3cc8b540	0.02450049
232	0x3cc63c2f	0.02419862
233	0xbd47d071	-0.04878277
234	0xbd3ce2e2	-0.04611481
235	0xbd91f723	-0.07127216
236	0xbb1ff3ef	-0.002440687
237	0xbd1138e2	-0.03545464
238	0x3c8e50fb	0.017372599
239	0xb9dd1900	-0.0004217103
240	0xbd8c189f	-0.068406336
241	0xbd3c6494	-0.045994356
242	0xbccec02d	-0.02523812
243	0xbc32fbed	-0.010924322
244	0xbdbf432e	-0.093389854
245	0xbd13970e	-0.03603273
246	0xbd226e83	-0.039656173
247	0xbd28c679	-0.041204903
248	0xbc103958	-0.008802734
249	0xbc9edd0a	-0.019392509
250	0xbd99eb71	-0.0751561
251	0xbd0839a9	-0.033258114
252	0x3d6677a6	0.05626645
253	0xbcafc837	-0.021457775
254	0x3d41ab24	0.047282353
255	0xbd41352c	-0.04716985

conv3.conv.bias f4 [32]
0	0xbd65408a	-0.055969752
1	0xbcfea6ee	-0.031085458
2	0xbda320fe	-0.07965277
3	0xbd298221	-0.041383866
4	0xbd84af89	-0.06478793
5	0x3c33e202	0.010979177
6	0xbc8b4bec	-0.017003976
7	0xbd200eb6	-0.03907653
8	0xbc9947c7	-0.018710984
9	0xbca071f6	-0.01958559
10	0xbda8b7f2	-0.0823821
11	0x3d9d2ffe	0.076751694
12	0xbcde9c13	-0.027174031
13	0xbc9a3f65	-0.018829057
14	0xbd0bc8ec	-0.03412716
15	0x3d260404	0.040531173
16	0xbd44b066	-0.04801979
17	0xbca0df8e	-0.01963785
18	0xbb458af2	-0.0030142632
19	0x3e11bb54	0.14231616
20	0xbd60ad7b	-0.054852944
21	0xbd9bdae9	-0.07610113
22	0xbd4c3a33	-0.04986019
23	0x3db29f63	0.08721807
24	0xbd18fe27	-0.037351754
25	0x3d2918cb	0.04128341
26	0x3d973258	0.07382649
27	0x3d0698ca	0.032860555
28	0x3c3955bc	0.011311945
29	0xbd55684b	-0.052101415
30	0xbba026ac	-0.0048874225
31	0xbd02bd27	-0.03191867

mlp.0.weight f4 [240, 800]
0	0xbcc64ea3	-0.024207419
1	0xbd36f3b2	-0.044666
2	0x3c9c2e58	0.019065067
3	0x3c724b7b	0.014788504
4	0xbce29fd6	-0.027664106
5	0x3bdaf246	0.0066817133
6	0x3c8b8bb7	0.017034395
7	0xbc0652ee	-0.008198483
8	0xbd282aea	-0.04105655
9	0xbc55a189	-0.013039001
10	0xbcb1c46b	-0.021700105
11	0xbb80e284	-0.0039332528
12	0xbcf5b0ad	-0.029991472
13	0xbbe1795f	-0.0068809236
14	0xbcd58c63	-0.026067918
15	0x3c7fd652	0.015615063
16	0x3c5eaedf	0.013591497
17	0xbcdb891a	-0.026798774
18	0xbc8b84fb	-0.017031183
19	0xbcce6fad	-0.025199736
20	0xbd0e8195	-0.034791548
21	0xbcad4870	-0.021152705
22	0xbcb62396	-0.022233766
23	0xbb1b5c98	-0.0023706313
24	0xbc8e9796	-0.017406266
25	0x3d06f35f	0.03294694
26	0x39bdb700	0.00036185235
27	0xbccead44	-0.025229104
28	0xbcbe8b88	-0.023259893
29	0xbd26e019	-0.04074106
30	0x3af6f760	0.0018842034
31	0xbc7e6c83	-0.015528801
32	0xbc88852f	-0.01666507
33	0x3c1e1796	0.009649178
34	0xbcc23d9d	-0.02371102
35	0xbb1fe601	-0.0024398568
36	0xbccbec81	-0.024893047
37	0x3c9b49be	0.018956061
38	0xbc833d68	-0.016020492
39	0xbc8c18a2	-0.01710159
40	0x3c2d8fac	0.010593336
41	0xbb9af046	-0.00472835
42	0xbc794663	-0.015214535
43	0xbc34884b	-0.011018823
44	0xbb93230e	-0.004490263
45	0xbc8ad292	-0.01694611
46	0xbc469b5a	-0.012122
47	0xbc385e6c	-0.011252981
48	0x3b916313	0.0044368594
49	0xbd2bed8d	-0.041974593
50	0x3ab6cda5	0.0013946785
51	0xb97e013f	-0.00024223792
52	0xbc95e36a	-0.018296916
53	0x3c14a2d6	0.009072026
54	0xbd107810	-0.03527075
55	0xbc92c8da	-0.01791804
56	0xbc84ebfd	-0.01622581
57	0xbcdf0fe6	-0.02722926
58	0xbcecc285	-0.028901348
59	0xbcb71568	-0.022349074
60	0x3c5f71c8	0.013637967
61	0xbd12a417	-0.03580102
62	0xbb543c84	-0.0032384703
63	0x3bbdd4a3	0.0057931705
64	0x3bc8bb07	0.006125811
65	0x3ce07006	0.027397167
66	0x3c55ffe7	0.0130615
67	0x3c70e0b9	0.014702016
68	0x3c36325d	0.011120406
69	0x3b620ff3	0.003449437
70	0x3add69a0	0.0016892441
71	0xbcdef564	-0.02721662
72	0xbc3b5dca	-0.011435935
73	0x3b9ad20d	0.004724747
74	0xbc29168e	-0.010320319
75	0xbd096a73	-0.033548784
76	0xbb8481c0	-0.0040437877
77	0x3ca61866	0.020275306
78	0x3c4e0c36	0.0125761535
79	0xbd19965a	-0.037496902
80	0xbc2e38b6	-0.010633638
81	0x3b53a984	0.0032297084
82	0x3a9581a9	0.001140644
83	0xbce508f8	-0.027958378
84	0x3bc25608	0.005930666
85	0xbc3ebc79	-0.011641615
86	0xbcc6eb19	-0.024282025
87	0xbd29ef23	-0.041487824
88	0x3ca36242	0.019944314
89	0xbc112a38	-0.008860163
90	0xbcae86eb	-0.021304568
91	0xbb4683c6	-0.0030290945
92	0xba942af7	-0.0011304308
93	0x3c4ac90a	0.012377033
94	0xbd17baca	-0.03704337
95	0x3c347a7c	0.011015531
96	0xbca133fe	-0.019678112
97	0x3ba1aa6b	0.0049336455
98	0xbbac2aac	-0.0052541103
99	0x3beedd6b	0.0072895787
100	0xbcce616c	-0.025192939
101	0xbc468866	-0.012117481
102	0xbbb61126	-0.0055562435
103	0xbcc4bcc0	-0.024015784
104	0x3b963ab0	0.004584633
105	0xbce8c1fe	-0.028412815
106	0x3cf85428	0.030313566
107	0xbce95806	-0.028484356
108	0xbca9a7ec	-0.020709954
109	0xbd04a18d	-0.03238063
110	0xbd0ac858	-0.03388247
111	0x3ca03fd6	0.01956169
112	0xbbd5ffd9	-0.0065307436
113	0x3d26c5cb	0.040715974
114	0x3cb8d55e	0.022562679
115	0xbc44e7c0	-0.012018144
116	0x3c35c071	0.011093245
117	0x3c72c7e3	0.0148181645
118	0x3ba5c542	0.0050589154
119	0x3c6026ac	0.013681095
120	0x3c50fbf0	0.012755379
121	0xbc1bbaf8	-0.009505026
122	0x3af1f1c2	0.001845889
123	0xbd241a0d	-0.040063906
124	0x3ce9aa8a	0.028523702
125	0x3b90d308	0.004419688
126	0x3c18722c	0.009304564
127	0x3d08831f	0.03332817
128	0x3cc6695c	0.024220161
129	0x3ce02652	0.027362023
130	0xbcc15a22	-0.023602549
131	0x3c9ecbf8	0.01938437
132	0x3d01e4e3	0.031712424
133	0xbb1dcba0	-0.0024077669
134	0xbc8f719b	-0.017510226
135	0x3c4b7658	0.012418352
136	0xbbbf7990	-0.005843349
137	0x3b5c6920	0.0033631995
138	0x3c00ab54	0.007853348
139	0x3c498754	0.012300331
140	0x3c6543ec	0.013993245
141	0x3cc838d4	0.02444116
142	0x3cda0bbe	0.026616927
143	0xbc887462	-0.016657058
144	0xb7c13cae	-2.3035649e-05
145	0xbb23f800	-0.0025019646
146	0x3cd6d3ae	0.026223984
147	0x3b3e8920	0.0029073432
148	0x3c1b4867	0.009477711
149	0xbce4ef0d	-0.02794602
150	0xbb735a43	-0.0037132658
151	0xbcc55102	-0.02408648
152	0xbcd9e283	-0.026597267
153	0x3c999f14	0.018752612
154	0xbc536e23	-0.012904677
155	0xbd393581	-0.04521704
156	0x3bcc53b4	0.006235564
157	0xbbec4370	-0.0072101876
158	0x3c4a47a5	0.012346183
159	0x3bdc37eb	0.006720533
160	0xbba7cc52	-0.0051207924
161	0xbb9004a6	-0.0043950854
162	0x3bac3cda	0.0052562775
163	0xbc9a3df9	-0.018828379
164	0xbc2aa183	-0.010414484
165	0x3bcc2870	0.0062304065
166	0xbc8da589	-0.017290847
167	0x3c4dedfe	0.012568949
168	0xbc0a439c	-0.008438971
169	0xbc1f76c1	-0.009732903
170	0x3bc8a1dd	0.006122811
171	0xbd301183	-0.04298545
172	0xbd039c15	-0.032131273
173	0xbcf1fd00	-0.029539585
174	0xbd326e7e	-0.043562405
175	0x3c89e620	0.016833365
176	0xbc568292	-0.013092654
177	0xbcb8d13c	-0.022560708
178	0xbd249544	-0.040181413
179	0xbc4f9fa0	-0.012672335
180	0xbbd1106c	-0.0063801315
181	0x3c83c2e2	0.016084138
182	0xbd157dc0	-0.036496878
183	0x3c519e29	0.012794056
184	0x3cb28870	0.021793574
185	0xbc88102c	-0.016609274
186	0xbce2e546	-0.027697217
187	0x3c28bdc6	0.010299152
188	0xbcbfd15c	-0.02341526
189	0x3c212e9e	0.009837775
190	0x3d07e359	0.0331758
191	0xbd17161e	-0.036886327
192	0xbcd94f7c	-0.026527159
193	0x3c6cf0cc	0.014461707
194	0x3d05f2ad	0.032702137
195	0x3d050287	0.032473113
196	0xbd1fb626	-0.03899207
197	0xbcce1828	-0.025158003
198	0xbd0b8ec3	-0.034071695
199	0xbcfc073d	-0.03076517
200	0x3bb45e40	0.0055043995
201	0xbcfdd8d9	-0.03098719
202	0x3c75b23c	0.014996108
203	0x3c477bd4	0.012175519
204	0xbcaf813e	-0.021423932
205	0x3c9a311e	0.018822249
206	0x3c10cf65	0.008838509
207	0x3cb67e38	0.022276983
208	0x3c6a2b70	0.014292583
209	0x3cf767ae	0.030200806
210	0xbcf4c251	-0.029877814
211	0xbcf70fe7	-0.03015895
212	0x3bbae8a8	0.0057040043
213	0x3c24a9e4	0.010050271
214	0x3c809aee	0.015698876
215	0x3c0457e4	0.008077595
216	0x3d0c4de3	0.034253966
217	0xbc6b923a	-0.014378125
218	0x3cbe8830	0.023258299
219	0xbcdeaf94	-0.027183332
220	0xbc17fe24	-0.0092769
221	0x3c402db8	0.01172965
222	0xbbd13c20	-0.0063853413
223	0xbc9982e7	-0.018739177
224	0xbc985465	-0.01859493
225	0xbce27628	-0.027644232
226	0xbccc5708	-0.024943843
227	0x3caac7b5	0.02084718
228	0xbb8ab009	-0.004232411
229	0x3bebfd3b	0.0072018183
230	0xbd2214d0	-0.03957063
231	0xbd1a57e8	-0.03768149
232	0xbd26de39	-0.04073927
233	0xbd1fccbc	-0.03901361
234	0x3a5985f2	0.00082978525
235	0xbcb62548	-0.022234574
236	0x3a24a3c8	0.0006280509
237	0x3b255163	0.0025225512
238	0x3c266e94	0.0101582
239	0xbbb522b0	-0.0055278167
240	0xbc03ee0b	-0.008052359
241	0xbafdfc32	-0.0019377528
242	0xbbf54cf6	-0.007485981
243	0xbcb5b476	-0.022180777
244	0x3b3d3ee7	0.0028876604
245	0xbd3644cb	-0.0444992
246	0xbd36fdfb	-0.04467581
247	0xbcffc4f7	-0.03122185
248	0xbc245c6f	-0.0100318035
249	0xbcc0a1f2	-0.023514722
250	0x3c096688	0.008386262
251	0x3aab3a80	0.0013063699
252	0x3d3625cd	0.044469643
253	0x3c058724	0.008149896
254	0x3d09c59f	0.03363573
255	0x3cfed222	0.031106059

mlp.0.bias f4 [240]
0	0xbcae72e8	-0.021295026
1	0x3bab3a37	0.0052254456
2	0x3b3d1846	0.002885358
3	0xbcc5fd2a	-0.02416857
4	0xbcda7b4f	-0.026670126
5	0xbd4777a7	-0.048698094
6	0xbd4e2a6e	-0.050333433
7	0x3d2e1e45	0.042509336
8	0xbd28becf	-0.041197594
9	0xbcc75289	-0.024331348
10	0xbcbfc6fd	-0.023410315
11	0x3ca6291a	0.02028327
12	0xbc2eede6	-0.010676837
13	0xbade9779	-0.0016982398
14	0x3dbd1b33	0.092337035
15	0x3c1f2c0e	0.009715093
16	0x3c8edd64	0.017439552
17	0xbcd29fdc	-0.025710993
18	0x3b6ea7dd	0.0036415972
19	0xbccea9c7	-0.02522744
20	0xbcda1ebb	-0.026625982
21	0xbc4b549b	-0.012410308
22	0xbd37222e	-0.04471033
23	0x3dbca396	0.09210889
24	0x3c685e6d	0.014182669
25	0x3d15cc2c	0.036571667
26	0xbc6e3d0b	-0.014540921
27	0x3bf2e5a1	0.007412628
28	0x3d4f1629	0.050558243
29	0x3c25f522	0.010129245
30	0xbca337e2	-0.019924108
31	0xbcea1586	-0.028574716
32	0xbc9a0e43	-0.018805629
33	0x3bb3889a	0.0054789307
34	0x3c2a3272	0.010388004
35	0xbc8132a0	-0.01577121
36	0x3d6b8fa9	0.057510052
37	0x3c12f469	0.008969405
38	0x3c1ebd79	0.0096887285
39	0x3d89b3cb	0.06723746
40	0xbd54b59c	-0.05193101
41	0xbd36b2c8	-0.044604093
42	0xbce662dc	-0.028123312
43	0x3cf6ce02	0.030127529
44	0xbd170d6b	-0.03687803
45	0xbd2dcd8c	-0.042432353
46	0x3cd8f6f4	0.026484944
47	0x3daf645e	0.085640654
48	0x3d8cd878	0.06877226
49	0xbc2150b5	-0.009845902
50	0xbc9e3d07	-0.01931621
51	0xbc7287e5	-0.014802908
52	0x3b3a0fc6	0.002839075
53	0x3d32b580	0.043630123
54	0x3c4ecd19	0.012622141
55	0xbd358c90	-0.044323504
56	0xbd041dfa	-0.03225515
57	0xbd81cc64	-0.063378125
58	0xbc7b30cd	-0.015331459
59	0xbc95dc06	-0.018293392
60	0x3ca22a74	0.019795634
61	0xbb640673	-0.0034793883
62	0x3cbd51d4	0.023110308
63	0xbc96a1db	-0.018387726
64	0x3dde5cca	0.10857542
65	0x3cd6f75f	0.026241003
66	0xbd15f182	-0.036607273
67	0xbc6d7074	-0.014492143
68	0xbc68b21d	-0.014202622
69	0x3da350a2	0.07974364
70	0x3c344dac	0.011004847
71	0xbb87d4b1	-0.004145228
72	0x3e0a2877	0.13491999
73	0x3d80e69b	0.062939845
74	0xbc62733d	-0.01382142
75	0x3d0d7f3a	0.03454516
76	0x3d90dcd0	0.07073367
77	0x3e0c522d	0.13703223
78	0x3c1b643b	0.009484346
79	0x3c72bf53	0.014816123
80	0x3b272708	0.0025505442
81	0xbccaf883	-0.024776703
82	0xbd8b3465	-0.06797103
83	0x3cf2a53f	0.029619811
84	0xbcde7194	-0.027153768
85	0x3c31b69f	0.010846763
86	0xbbaa4c0a	-0.005197053
87	0x3b26fc02	0.0025479798
88	0x3ce014d6	0.027353685
89	0xbc163829	-0.009168663
90	0xbd180fe1	-0.03712452
91	0x3d35ffa7	0.044433262
92	0xb8898b5a	-6.558625e-05
93	0xbd365f43	-0.044524442
94	0xbc837d7b	-0.016051045
95	0x3caeb9aa	0.021328766
96	0x3d58303f	0.052780386
97	0x3dcd3466	0.1001976
98	0xbd0db0d3	-0.03459246
99	0xbc8167e6	-0.015796613
100	0x3dc2dfdd	0.09515355
101	0x3d3a0af1	0.04542059
102	0xbd076c83	-0.03306247
103	0xbcf09500	-0.029367924
104	0xbb187700	-0.002326429
105	0x3d1cb8f1	0.03826231
106	0x3de584bb	0.11206957
107	0x3d45445a	0.04816089
108	0xbc7504e3	-0.014954778
109	0xbd0b18b7	-0.033959117
110	0xbcb14c00	-0.021642685
111	0xbd022036	-0.031769
112	0x3bcd3f39	0.0062636402
113	0x3d0e915d	0.034806598
114	0x3bc9b6b9	0.0061558154
115	0xbd4c2267	-0.049837496
116	0x3cdadb52	0.026715908
117	0x3d1f65e2	0.038915522
118	0x3d16935c	0.036761627
119	0x3db19071	0.08670128
120	0x3cda2640	0.026629567
121	0x3b72ce51	0.0037049244
122	0xbd31a90e	-0.043374114
123	0x3d1193d3	0.035541367
124	0x3c896bb3	0.016774988
125	0x3dae294a	0.08503969
126	0x3b422db7	0.00296293
127	0x3d186c04	0.037212387
128	0x3d1eda71	0.03878254
129	0xbcf9b1c7	-0.030480279
130	0x3d9f6d19	0.077844806
131	0x3b6692c2	0.003518269
132	0xbc9dd777	-0.01926778
133	0x3d889b8d	0.06670294
134	0xbc0e8eae	-0.00870101
135	0x3d105a05	0.0352421
136	0xbcc1a57e	-0.023638483
137	0xbd083bd8	-0.033260196
138	0xbcd9052f	-0.02649173
139	0x3c823b19	0.01589732
140	0x3c0da1e6	0.008644557
141	0xbca36e0a	-0.019949932
142	0x3d348318	0.044070333
143	0xbc0a3ca4	-0.008437309
144	0xbd5b49a8	-0.05353704
145	0xbbebbd65	-0.0071942084
146	0x3d6d6914	0.05796154
147	0x3cb1ca00	0.021702766
148	0x3c6e06e4	0.01452801
149	0x3c9577bc	0.01824557
150	0xbce55de1	-0.027998867
151	0x3cc30793	0.023807323
152	0x3dd35d73	0.103205584
153	0x3cceb83e	0.025234338
154	0x3cb248cc	0.021763228
155	0xbcaba3ae	-0.020952072
156	0x3dc3fe53	0.09569993
157	0xbcdb050e	-0.026735809
158	0x3caf6a51	0.021413
159	0x3c956609	0.01823713
160	0xbc8996c3	-0.016795522
161	0xbc954dee	-0.018225636
162	0x3d67454d	0.056462575
163	0x3c3d7c24	0.011565242
164	0xbd89685a	-0.067093566
165	0x3d192e0e	0.037397437
166	0x3b85641a	0.004070771
167	0xbd01a938	-0.03165552
168	0xbc217c4e	-0.009856297
169	0x3c258b8f	0.010104074
170	0x37a46cff	1.9601079e-05
171	0x3dbbba11	0.09166349
172	0x3cfedefe	0.03111219
173	0x3d09d85c	0.033653602
174	0x3b7866bb	0.003790303
175	0x3cb61e46	0.022231232
176	0xbd0fab7e	-0.035075657
177	0xbb64f5a4	-0.0034936452
178	0xbc416284	-0.011803273
179	0x3d2369de	0.039895885
180	0xbafeae08	-0.0019430527
181	0xba704136	-0.00091649906
182	0x3d8cfd09	0.068842
183	0xbb9fa40e	-0.0048718518
184	0xbd4ee29f	-0.05050909
185	0xbcb4423c	-0.02200424
186	0x3d023858	0.031792015
187	0x3d4d1e97	0.050078
188	0x3da89a9f	0.08232617
189	0x3abe3acd	0.0014513374
190	0xbd22bba1	-0.039729718
191	0xbcec9e82	-0.028884176
192	0xbcd48c10	-0.025945693
193	0x3db959e5	0.09050349
194	0x3c98fc29	0.018674927
195	0xba616700	-0.0008598417
196	0x3d821b9c	0.06352922
197	0xbcb5886a	-0.022159774
198	0x3d1381f3	0.0360126
199	0x3ca76a1a	0.020436335
200	0x3c039047	0.008030004
201	0x3c65d2b2	0.014027284
202	0xbcdbe5a0	-0.026842892
203	0xbbdc7d1a	-0.0067287805
204	0x3d22b5b8	0.03972408
205	0x3d167da2	0.036740907
206	0x3a71143b	0.0009196435
207	0xbca69ecd	-0.020339394
208	0x3c183b84	0.009291533
209	0x3d079ce9	0.033108626
210	0x3d6f9ce7	0.058499243
211	0x3bb62cb7	0.0055595296
212	0xbc233e7f	-0.009963631
213	0x3c5f991f	0.013647347
214	0x3d749b8c	0.059718654
215	0xbafebde7	-0.0019435257
216	0xbd5d0b24	-0.053965703
217	0x3cfe50b7	0.031044347
218	0xba96f967	-0.001151842
219	0xbd2f2623	-0.04276098
220	0x3c2fe256	0.010735115
221	0x3d20575c	0.039145812
222	0xbd242c75	-0.04008146
223	0x3d0d9b8d	0.034572173
224	0x3d7471c4	0.059678808
225	0x3d4c83b3	0.049930286
226	0x3d64784a	0.05577878
227	0x3d9c0415	0.07617966
228	0x3e1b254f	0.15150951
229	0x3c26bc9f	0.010176807
230	0x3d0aa73f	0.033850905
231	0xbd545cb7	-0.051846232
232	0xbc00c3f6	-0.007859221
233	0xbd3bf415	-0.04588707
234	0x3c729598	0.014806174
235	0x3d2706cb	0.040777963
236	0xbcf8f5be	-0.030390617
237	0xbc762078	-0.01502239
238	0xbcda8833	-0.026676273
239	0xbbfc481a	-0.007699025

mlp.2.weight f4 [84, 240]
0	0x3c66d6d2	0.014089303
1	0x3d92bb65	0.07164649
2	0x3d09a54e	0.033604912
3	0x3c15d133	0.009144115
4	0x3cb01ad2	0.021497164
5	0x3d46d716	0.048544966
6	0x3ba8680a	0.0051393555
7	0x3d239254	0.03993447
8	0x3cfd280d	0.030902887
9	0xbc94c1ca	-0.018158812
10	0xbc86ab01	-0.016438963
11	0x3dbb1ad7	0.09135979
12	0x3c4e9e59	0.012610995
13	0xbdacfb31	-0.084463485
14	0x3e48dbc3	0.19615082
15	0xbd5f9336	-0.05458375
16	0x3d6e80b7	0.05822822
17	0x3bbb3753	0.0057133823
18	0xbd43c494	-0.047794893
19	0xbc485318	-0.012226842
20	0x3bd3ed3d	0.00646749
21	0x3dc5e646	0.09663062
22	0xbb52c9b6	-0.0032163686
23	0x3d03f336	0.032214366
24	0x3d55b230	0.052171886
25	0x3b805863	0.0039167865
26	0x3da82085	0.082093276
27	0xbc325da8	-0.010886587
28	0x3d9a7f38	0.07543796
29	0x3d120b4e	0.035655312
30	0xbd0747b1	-0.033027355
31	0x3e14ba71	0.14524247
32	0xbd6ae2ef	-0.057345327
33	0x3d30260b	0.04300503
34	0x3d58db13	0.0529433
35	0x3cb4232f	0.021989433
36	0xbd0216de	-0.03176009
37	0x3d5de104	0.05416967
38	0xbd97263b	-0.07380339
39	0x3c3279ba	0.01089328
40	0x3c3cd258	0.011524759
41	0x3d9c9c75	0.07647029
42	0x3c1f4a91	0.009722368
43	0xbd94c26c	-0.072636455
44	0x3bdf262b	0.00680997
45	0xbd1dd2b4	-0.03853102
46	0x3d8a1ae0	0.06743407
47	0x3ae35706	0.0017344661
48	0x3d3559d6	0.044275127
49	0x3d33af99	0.043868635
50	0xbbb57901	-0.0055381064
51	0xbd69bf62	-0.057067282
52	0x3cd771b9	0.026299344
53	0xbcf01238	-0.029305562
54	0xbd85f206	-0.06540303
55	0xbd9027f4	-0.070388705
56	0xbd1836be	-0.03716158
57	0xbcb7f6a3	-0.022456473
58	0xbd721625	-0.05910315
59	0xbd6a8881	-0.057259087
60	0x3b126765	0.002233946
61	0xbb99de4a	-0.0046956884
62	0xbdff728d	-0.12473021
63	0xbbce6ee6	-0.006299841
64	0xbd938bc8	-0.072043955
65	0xbcf1bf6f	-0.029510228
66	0xbd69466e	-0.056951933
67	0xbd5da23b	-0.054109793
68	0xbdbe3dc8	-0.092891276
69	0xbdd0359f	-0.101664774
70	0x3bba38a9	0.005683024
71	0xbd7e689b	-0.06211148
72	0x3e5ca42c	0.21547002
73	0x3b685c53	0.003545542
74	0x3d18ec74	0.037334874
75	0x3d6d97c1	0.058006052
76	0x3dc863f0	0.097846866
77	0x3d85bca3	0.0653012
78	0xbe21e229	-0.1580893
79	0x3cba7339	0.02276002
80	0x3cd3c018	0.025848433
81	0xbcf7d4ce	-0.03025284
82	0xbd788c1e	-0.0606805
83	0x3da0b8c6	0.07847743
84	0x3d0e841d	0.03479396
85	0x3d8ba34a	0.06818254
86	0xbb15d900	-0.0022864938
87	0xbc8212ab	-0.015878042
88	0x3d68bdbf	0.05682158
89	0x3be87512	0.007094034
90	0x3d39acf0	0.04533094
91	0x3dad8149	0.08471925
92	0xbd77d873	-0.060509156
93	0xbd777d16	-0.060422026
94	0x3d1c6223	0.038179528
95	0xbdc7b521	-0.097513445
96	0x3dcf7409	0.10129554
97	0xbda89f08	-0.08233458
98	0x3c8b9bd9	0.017042087
99	0xbce738df	-0.02822536
100	0xbc880b68	-0.016607001
101	0x3e334bb5	0.17509349
102	0x3d7d089b	0.061775785
103	0xbac82bd2	-0.0015271849
104	0x3d4ab3ea	0.049487986
105	0x3c8736ab	0.01650556
106	0xbdff77bf	-0.12474012
107	0xbdbd146d	-0.092324115
108	0x3bfdee35	0.0077493438
109	0xba8ca36c	-0.0010729856
110	0x3d6b3fea	0.057434
111	0x3d8eba02	0.06969072
112	0x3c582de0	0.013194531
113	0x3dc527c4	0.09626725
114	0x3cad25ca	0.021136183
115	0xbc12c976	-0.008959165
116	0xbdd61f7a	-0.104552224
117	0xbd497ddf	-0.049192306
118	0xbd1f2644	-0.038854852
119	0x3d408b9b	0.04700814
120	0x3b206c7f	0.0024478731
121	0x3d0ef8ce	0.034905247
122	0x3b7d35d7	0.0038636827
123	0x3c02f656	0.007993301
124	0xbdc682a7	-0.09692889
125	0x3c363333	0.011120605
126	0xbd926102	-0.07147409
127	0xbbee4b39	-0.007272151
128	0x3e0332e2	0.12812379
129	0x3cc1af20	0.023643076
130	0x3e8414ca	0.2579711
131	0xbcfc2124	-0.030777521
132	0x3de4e3c5	0.11176256
133	0xbdb07403	-0.086158775
134	0xbc31e069	-0.010856726
135	0x3c7bb607	0.015363223
136	0xbd01d9e9	-0.031701956
137	0xbc3529b5	-0.011057307
138	0xbdffe8c4	-0.124955684
139	0x3c8a04ca	0.016847987
140	0xbe1ad6f9	-0.15121068
141	0xbd893d18	-0.06701106
142	0xbd8773b8	-0.066138685
143	0x3c298f71	0.0103491405
144	0x3cb66833	0.022266483
145	0xbde745d5	-0.11292616
146	0x3d907d2b	0.07055124
147	0x3c3f72a0	0.011685044
148	0xbbcc7e1f	-0.0062406207
149	0x3d64c761	0.055854205
150	0x3d30ff6c	0.04321234
151	0xbb8de41d	-0.0043301717
152	0xbb34e4f6	-0.0027602292
153	0xbd9c4037	-0.076294355
154	0xbc9e9847	-0.01935972
155	0x3c499b5c	0.012305107
156	0xbd9e06cc	-0.0771614
157	0xbc8222e0	-0.01588577
158	0xbd878f05	-0.06619076
159	0xbcd7cbb8	-0.026342258
160	0xbc8da51a	-0.01729064
161	0xbce2703f	-0.027641414
162	0x3d43230b	0.04764084
163	0xbcd038da	-0.025417734
164	0x3d023018	0.031784147
165	0xbcf02cb3	-0.02931819
166	0x3d6566ae	0.056006126
167	0x3c839ace	0.016065028
168	0xbcf485af	-0.029848902
169	0x3d12db2b	0.035853546
170	0x3ba0559a	0.004893017
171	0x3cfff4b3	0.031244611
172	0x3dee1771	0.11625565
173	0xbdc066f3	-0.09394636
174	0x3e238942	0.15970328
175	0xbd04bc1d	-0.03240596
176	0xbd393674	-0.045217946
177	0x3ceec93a	0.029148687
178	0x3d8eea92	0.069783345
179	0xbd01f28c	-0.03172545
180	0x3c98ffa0	0.018676579
181	0xbcd78e76	-0.026313048
182	0x3ce46b97	0.027883334
183	0x3d8ac8c6	0.06776576
184	0xbb2ed2f8	-0.002667604
185	0x3d5623d5	0.052280266
186	0x3dad5d0d	0.08465014
187	0x3d114cc3	0.035473596
188	0xbd1d7b61	-0.03844774
189	0xbd10ea91	-0.03537995
190	0x3bc56890	0.0060244277
191	0xbc7150a7	-0.014728702
192	0x3d1d46b7	0.038397517
193	0x3d9a4d7b	0.075343095
194	0xbd8456c5	-0.064618625
195	0xbd064fd0	-0.03279096
196	0x3c07e18b	0.00829352
197	0xbca7c732	-0.020480726
198	0xbda96001	-0.082702644
199	0x3d7e595d	0.062096942
200	0xbccc690e	-0.024952438
201	0xbe19d4fb	-0.15022652
202	0xbd3a2f4f	-0.045455273
203	0x3d097727	0.0335609
204	0xbcb73d24	-0.022368021
205	0x3dd07d70	0.10180175
206	0x3d51acff	0.051190373
207	0x3c920b48	0.017827645
208	0x3bed1a27	0.0072357836
209	0xbc7bf1aa	-0.015377441
210	0xbd772872	-0.060341306
211	0xbcd56573	-0.026049351
212	0x3d65713c	0.05601619
213	0x3ca8dabe	0.020612117
214	0x3e78867f	0.24270056
215	0x3d6dda95	0.058069784
216	0xbd17410b	-0.036927264
217	0xbd80af2d	-0.06283412
218	0x3cc98c91	0.02460316
219	0x3bb8a39d	0.0056347386
220	0xbd8190e7	-0.06326466
221	0x3d2e76be	0.04259371
222	0xbd84bc4b	-0.064812265
223	0xbda1fb74	-0.07909289
224	0x3d948c16	0.07253282
225	0x3d26fd67	0.040769007
226	0xbe0b5f80	-0.13610649
227	0x3d9bc2fe	0.07605551
228	0x3e119562	0.14217141
229	0xbc9f3ed2	-0.019439135
230	0x3d30675d	0.043067325
231	0xba8e108e	-0.0010838674
232	0xbbe370a0	-0.006940916
233	0xbdd5a866	-0.1043251
234	0x3ddd76c7	0.108136706
235	0x3d4b98e4	0.049706355
236	0xbc85a4fb	-0.01631402
237	0xbd3de4ad	-0.04636066
238	0xbd1376c7	-0.036001947
239	0x3cd19102	0.02558184
240	0xbc954995	-0.018223563
241	0xbc991caa	-0.018690426
242	0x3c1295d3	0.008946854
243	0x3d838ba7	0.06423121
244	0x3ca24b55	0.019811312
245	0x3d42d308	0.047564536
246	0xbd25428f	-0.04034668
247	0xbcb2898f	-0.021794109
248	0x3d0c803b	0.034301978
249	0x3a0a3e5e	0.00052735757
250	0xbd52362c	-0.051321194
251	0xbd8ff8fd	-0.070299126
252	0xbc56b608	-0.013104923
253	0xbcce7c34	-0.025205709
254	0x3c364687	0.0111252135
255	0xbce2ccb7	-0.027685506

mlp.2.bias f4 [84]
0	0x3dae7627	0.085186295
1	0xbc15e504	-0.00914884
2	0x3dd83a4d	0.10557995
3	0x3caa0698	0.020755097
4	0x3dc91bac	0.09819731
5	0xbc209de0	-0.009803265
6	0x3defc031	0.117065795
7	0xbc724b2c	-0.01478843
8	0x3bbaac15	0.0056967833
9	0x3ccedbe6	0.02525134
10	0xbcc24f4d	-0.023719454
11	0x3d862d05	0.065515555
12	0x3dbb4544	0.09144071
13	0xbcf31064	-0.029670902
14	0x3d8c4a79	0.06850142
15	0xbd40234c	-0.04690866
16	0xbca3f01f	-0.02001196
17	0x3c29feff	0.010375737
18	0xbd269866	-0.040672682
19	0x3d0d24f0	0.034459054
20	0xbd6f13b8	-0.058368415
21	0xbd0a76fe	-0.033804886
22	0xbd90ef29	-0.07076866
23	0xbc7a6f13	-0.015285271
24	0x3bd3efe6	0.006467807
25	0x3d490ef5	0.04908653
26	0xbd6114f7	-0.054951634
27	0x3d5946ec	0.053046152
28	0x3cebc3d8	0.028779909
29	0x3d387b32	0.045039363
30	0xbbeb43dc	-0.0071797203
31	0xbbe21fed	-0.0069007785
32	0x3c118117	0.008880875
33	0x3c321fbe	0.010871826
34	0xbc8309ba	-0.015995849
35	0x3d0d8dbb	0.034558993
36	0xbd0e1a0e	-0.034692816
37	0x3d82bc42	0.063835636
38	0xbcb8b452	-0.02254692
39	0x3d5f2666	0.05447998
40	0xbd5de610	-0.054174483
41	0x3d3b8126	0.045777462
42	0x3d5d9e59	0.05410609
43	0x3d27fa92	0.041010447
44	0x3ceb5110	0.028725177
45	0x3d07af4c	0.03312616
46	0x3d29697d	0.041360367
47	0xbbc4455a	-0.0059897127
48	0x3c2fafad	0.010723037
49	0x3c842882	0.016132597
50	0x3dbca9e1	0.09212089
51	0x3db1dca3	0.08684661
52	0xbbae8f98	-0.0053271763
53	0xbd6c25cc	-0.057653233
54	0xbd8be1b0	-0.06830156
55	0x3d85e294	0.06537357
56	0xbca00780	-0.019534826
57	0x3de6c797	0.112685375
58	0xbd430ed9	-0.04762158
59	0xbc06aa7a	-0.008219356
60	0x3de20859	0.110367484
61	0xbcbe5b1d	-0.023236806
62	0xbc838f7c	-0.01605963
63	0xbd75bee6	-0.059996508
64	0x3c4cddad	0.0125040235
65	0xbd5f49e8	-0.054513842
66	0xbbd6715c	-0.006544275
67	0x3cf86faa	0.030326683
68	0x3d36ef92	0.044662066
69	0x3dd185a0	0.10230565
70	0x3d85de18	0.06536502
71	0x3d129225	0.035783906
72	0xbc8b8193	-0.01702956
73	0x3cfb89db	0.030705383
74	0x3d2760b8	0.040863723
75	0xbd3093ae	-0.04310959
76	0x3caec3a4	0.021333523
77	0x3d9ccff8	0.076568544
78	0xbd8b33b5	-0.06796972
79	0x3d745700	0.059653282
80	0xbd766ab9	-0.060160372
81	0xbd2c26f6	-0.042029344
82	0xbc3bb887	-0.011457569
83	0x3c152c6e	0.009104831

mlp.4.weight f4 [15, 84]
0	0xbd3aa508	-0.045567542
1	0x3da04d56	0.07827251
2	0x3d330e62	0.04371489
3	0x3d7321c4	0.059358373
4	0x3cfb2cd5	0.030661026
5	0x3dd9ea79	0.10640425
6	0x3dfa3cea	0.1221865
7	0xba6cd6f2	-0.0009034715
8	0x3d2705fe	0.0407772
9	0x3deab4d1	0.11460269
10	0xbd4ea5db	-0.05045114
11	0xbd32cf4e	-0.043654732
12	0xbe67b940	-0.22629261
13	0xbd6c3bf8	-0.05767438
14	0xbe20c5a0	-0.15700388
15	0xbd0533b6	-0.03252002
16	0xbd2f63cd	-0.042819787
17	0x3d0a6355	0.033786137
18	0x3d66578a	0.056235828
19	0x3dbc506c	0.09195027
20	0xbd236d42	-0.03989912
21	0x3b6d8ad4	0.0036246078
22	0x3da2f73a	0.07957311
23	0xbd8af041	-0.06784106
24	0x3cdecc33	0.02719698
25	0xbe0f2252	-0.13977936
26	0x3d229565	0.039693255
27	0x3dc3d01d	0.09561179
28	0xbe51e074	-0.20495778
29	0xbccb5b30	-0.024823755
30	0xbcc669f2	-0.02422044
31	0xbe2c1e18	-0.16808355
32	0xbe185cca	-0.14879146
33	0xbe0a4bd0	-0.13505483
34	0xbe22d3d3	-0.15901117
35	0x3d526cca	0.05137328
36	0xbd1200c7	-0.035645273
37	0x3d4f6616	0.050634466
38	0xbe19ee90	-0.1503241
39	0x3dcd4ba0	0.1002419
40	0xbd6d77d9	-0.057975624
41	0x3df441bb	0.119265996
42	0x3d8fa388	0.07013613
43	0x3d3fa81d	0.046791185
44	0x3e282c0b	0.16423051
45	0x3c0f38de	0.008741586
46	0xbe3639a9	-0.17795433
47	0x3cd7ee77	0.026358826
48	0xbe21f318	-0.15815389
49	0xbc337b7f	-0.010954737
50	0x3dcc58da	0.099778846
51	0xbaa9964a	-0.0012938466
52	0x3e0abdcf	0.13548969
53	0xbd8b8e0e	-0.06814204
54	0xbd18d992	-0.037316866
55	0x3d89b68f	0.067242734
56	0x3c896a0a	0.016774196
57	0xbe4e9e21	-0.20177509
58	0xbe0aa42e	-0.13539192
59	0x3e100c9c	0.1406731
60	0xbe36111e	-0.17779967
61	0xbd717bcf	-0.058955964
62	0xbb4c0850	-0.0031132884
63	0x3c11d924	0.008901868
64	0xbc81c176	-0.01583932
65	0x3d59cbe4	0.05317296
66	0x3d908fcc	0.07058677
67	0x3c2908f5	0.010317077
68	0x3d216652	0.03940422
69	0xbe3783a3	-0.17921309
70	0x3c9d1e3b	0.019179454
71	0xbe211437	-0.15730368
72	0xbc6b0f23	-0.014346871
73	0x3dff737f	0.12473201
74	0x3d893a2c	0.067005485
75	0xbda17fe5	-0.07885722
76	0xbe0e2954	-0.13882953
77	0x3da88444	0.08228353
78	0xbdaf9398	-0.08573073
79	0x3bcb081f	0.0061960365
80	0xbdfc757b	-0.12327095
81	0xbcde7302	-0.02715445
82	0x3dd9b0db	0.10629436
83	0x3ddbae21	0.10726572
84	0x3e0791ba	0.13239184
85	0x3c890dd1	0.016730221
86	0xbdebee34	-0.11520043
87	0x3bb95b89	0.005656664
88	0xbd0acb0d	-0.03388505
89	0xbe0873ed	-0.13325472
90	0xbde2021a	-0.11035557
91	0xbc648796	-0.013948342
92	0xbe4102f2	-0.1884878
93	0xbdb88a82	-0.09010793
94	0xbce8f43f	-0.028436778
95	0xbe12dad9	-0.14341296
96	0x3d85225c	0.06500694
97	0xbc87adfc	-0.016562454
98	0xbd12d95f	-0.035851832
99	0x3dd6be9b	0.10485574
100	0xbe97fff3	-0.2968746
101	0xbd6780dd	-0.056519378
102	0xbd425949	-0.04744843
103	0xbd9e98ea	-0.0774401
104	0xbd43d308	-0.047808677
105	0x3ccd7d04	0.025084026
106	0xbc7f3449	-0.015576431
107	0xbda41822	-0.080124155
108	0x3a390802	0.0007058383
109	0xbdca4c66	-0.09877853
110	0x3c9abc81	0.018888714
111	0xbdc9124e	-0.098179445
112	0x3b683fb4	0.003543836
113	0xbe8f1c50	-0.27951288
114	0xbe23135d	-0.15925355
115	0x3bb25589	0.0054423255
116	0x3d23b316	0.03996571
117	0x3e79a291	0.2437842
118	0x3b60b1be	0.003428563
119	0xbd9b6611	-0.07587827
120	0x3da0f620	0.078594446
121	0xbd02a612	-0.03189666
122	0x3b465345	0.0030262035
123	0xbe41afc7	-0.1891471
124	0x3d7da0e1	0.061921004
125	0xbe68d7f6	-0.22738633
126	0xbdf0645c	-0.11737892
127	0xbce8d45c	-0.028421573
128	0xbe3a4bcb	-0.18192975
129	0xbd34dea9	-0.044157658
130	0xbc7e0a27	-0.01550535
131	0xbd416555	-0.04721578
132	0x3e5d84d1	0.21632697
133	0xbdc4b93e	-0.09605645
134	0x3c0732cd	0.008251858
135	0xbdcba4c3	-0.09943535
136	0x3d170a4f	0.036875065
137	0x3d192e58	0.037397712
138	0xbc0bef7a	-0.008540982
139	0xbe9b6873	-0.30353126
140	0x3c3843eb	0.011246662
141	0x3e088d03	0.13335042
142	0x3d809b03	0.06279566
143	0xbe025baf	-0.12730287
144	0x3e083a50	0.13303494
145	0xbdaa28a3	-0.08308532
146	0xbd49e711	-0.049292628
147	0xbb3f925c	-0.0029231524
148	0xbd8f7551	-0.07004798
149	0xbe4df5bf	-0.20113276
150	0x3d4f1437	0.050556388
151	0x3dd1393e	0.10215996
152	0x3ca27e88	0.019835725
153	0x3e0e768c	0.1391241
154	0x3e1ea105	0.15491112
155	0x3cf6873e	0.030093785
156	0xbe5dc629	-0.21657623
157	0xbe1f081e	-0.1553044
158	0x3db9b3bf	0.09067487
159	0xbd575f9d	-0.05258142
160	0xbdb3e3e2	-0.087836996
161	0x3d2672da	0.040636875
162	0xbd5e839e	-0.05432474
163	0xbe49f182	-0.19721034
164	0xbd571f53	-0.052520107
165	0xbcfb34c5	-0.03066481
166	0xbdfb0f92	-0.12258829
167	0xbdf0804c	-0.11743221
168	0x3a6ff57c	0.00091537065
169	0xbdc2fee3	-0.09521272
170	0xbdc32447	-0.09528404
171	0x3d8783ed	0.0661696
172	0xbd82eb62	-0.06392552
173	0xbe1573a6	-0.14594898
174	0xbe296ba6	-0.16544971
175	0x3dadcb11	0.084859975
176	0x3c67d40a	0.014149675
177	0xbe966097	-0.29370567
178	0xbc43a7ef	-0.011941894
179	0x3da974c3	0.08274224
180	0x3e08229a	0.1329445
181	0xbdbeb3b2	-0.09311618
182	0x3e0c22bb	0.13685124
183	0xbdd9adb4	-0.10628834
184	0x3b83e120	0.0040246397
185	0xbe53e409	-0.20692457
186	0xbdc2e138	-0.09515613
187	0xbadf85c3	-0.0017053414
188	0xbda41bd1	-0.08013118
189	0x3bfa4890	0.0076380447
190	0x3c9c1373	0.019052243
191	0xbdbcada5	-0.092128076
192	0xbdc20276	-0.09473126
193	0xbd85800a	-0.06518562
194	0x3da3da24	0.080005914
195	0xbe005b9b	-0.12534945
196	0x3dfbbbd4	0.12291685
197	0xbd624ab1	-0.055247013
198	0xbe416204	-0.18885046
199	0xbdcb9d4e	-0.09942113
200	0xbd89be83	-0.0672579
201	0xbdc5a41a	-0.096504405
202	0x3d95ff9f	0.073241465
203	0xba332fb1	-0.00068354147
204	0xbde42b37	-0.11141055
205	0xbe021fef	-0.12707494
206	0x3bc47836	0.0059957756
207	0xbe742a89	-0.23844351
208	0x3d9c33ea	0.07627089
209	0xbb21669b	-0.0024627808
210	0xbe735452	-0.23762634
211	0xbd4eaf52	-0.050460167
212	0xbe2f71a6	-0.17133197
213	0x3d48082b	0.048835915
214	0xbd69fce0	-0.057125926
215	0x3d718aae	0.058970146
216	0x3da833d3	0.0821301
217	0x3df3d358	0.11905545
218	0xbdf742a2	-0.12073256
219	0x3d3dbff3	0.046325635
220	0xbc5196fd	-0.012792346
221	0xbcf61f4d	-0.030044222
222	0x3c99bb72	0.018766139
223	0xbcd59759	-0.026073145
224	0xbd04788d	-0.03234153
225	0x3cce5272	0.025185797
226	0x3a8d36af	0.0010773743
227	0xbe8181ee	-0.2529444
228	0x3e028c4f	0.12748836
229	0x3d0e9564	0.03481044
230	0xbdcdc611	-0.10047544
231	0x3dab9ffd	0.08380125
232	0xbe482099	-0.19543685
233	0x3c83764d	0.016047621
234	0x3da792ec	0.0818232
235	0x3cbb49b5	0.022862295
236	0xbaa483da	-0.0012551502
237	0xba9dadc6	-0.0012029938
238	0x3d63aa60	0.055582404
239	0x3d5cbdf8	0.053892106
240	0xbde6e74a	-0.11274584
241	0xbd51d249	-0.051225934
242	0x3d5018f5	0.05080505
243	0x3b94ba18	0.0045387857
244	0x3d90085e	0.07032846
245	0xbe8056bf	-0.25066182
246	0xbd835088	-0.064118445
247	0xbe3e3afd	-0.1857719
248	0x3dbe4bc6	0.092917964
249	0x3da90ae1	0.08254028
250	0xbea72f01	-0.3265305
251	0x3c5a21d2	0.013313727
252	0x3dd2cda1	0.10293127
253	0x3d5284a6	0.051396035
254	0xbe859766	-0.2609207
255	0x3ccb8dc3	0.02484787

mlp.4.bias f4 [15]
0	0xbdbb9c1e	-0.09160636
1	0xbc8ee957	-0.01744525
2	0xbab50c92	-0.001381295
3	0x3dace1fd	0.08441541
4	0xbd8e143a	-0.06937452
5	0xbd25430f	-0.040347155
6	0x3d9772fa	0.07394977
7	0x3c9d8f6b	0.019233426
8	0x3cc70f4d	0.024299288
9	0xbd39360d	-0.045217562
10	0xbcefb612	-0.029261623
11	0xbd5a90af	-0.053360637
12	0xbd7ade7a	-0.061247326
13	0xbd3f6d55	-0.046735127
14	0x3de0e66e	0.10981451
